lstm_model.pth (torch, 45561 bytes, 5 tensors)

lstm.weight_ih_l0 f4 [200, 1]
000000 28 dc 7f 3e 55 b9 61 3e 10 ee 6c be b3 6c c8 3d
       0.24986327 0.22043355 -0.23137689 0.09786358
000010 a0 3d 88 3e cc 09 a7 3d 4d 87 45 3e 58 2c 8e bd
       0.26609516 0.081561655 0.19289894 -0.06942052
000020 66 54 d5 3c e8 3e 9c 3d 2a 3b 75 be 6e b3 0c be
       0.02604122 0.07629186 -0.2394835 -0.13740322
000030 f7 0b a1 3e ec d2 5b bd d1 32 e4 bd e8 e1 3a be
       0.3145444 -0.053667948 -0.11142505 -0.18250239
000040 d5 e6 7c 3e 3a 41 7f 3e 64 b3 e1 bc 89 be 95 3e
       0.2469743 0.24927226 -0.02755136 0.2924693
000050 9c f7 9c 3e 25 70 62 be ca 1d 96 3e a9 22 97 3e
       0.3065766 -0.22113092 0.29319602 0.2951863
000060 c5 67 e3 3d f1 41 f2 bc 23 64 06 3e 82 8b 95 bd
       0.11103777 -0.029572459 0.13124137 -0.07302
000070 b8 2c f5 3d 0f 63 57 3e 27 2c 12 be 7a 7b 74 be
       0.1197142 0.21033882 -0.14274655 -0.23875228
000080 ff a0 f7 bd 22 94 5c be 7e 21 67 be 0e b6 2e bb
       -0.120912544 -0.21540883 -0.2257137 -0.0026658806
000090 d9 d9 cd 3d 51 ad 8f 3d 7f 83 24 3e 06 f0 92 bd
       0.10051317 0.07015479 0.16065787 -0.07174687
0000a0 4f 3b e9 3d 26 da 90 3e ec 13 fb 3d 14 f5 21 be
       0.11388265 0.28291434 0.12259659 -0.15816146
0000b0 02 6e 17 bd af 60 a7 3e 9b f6 90 3d 01 1c 10 3e
       -0.036970146 0.3269095 0.07078286 0.14073183
0000c0 85 3b 15 3e ba 0a 1d be 8a 5f 40 3e 92 2a 8c 3e
       0.14573486 -0.15336123 0.18786445 0.2737623
0000d0 45 72 8d be 25 cc 52 3e b3 d8 17 3e f7 90 87 3d
       -0.27626243 0.20585687 0.14828758 0.06619447
0000e0 db 42 8a 3e 61 5c d5 3d 1d 3f d5 3d 31 7f d3 bd
       0.27004132 0.104180105 0.104124285 -0.10326994
0000f0 36 d3 83 be 6d 4a 92 be 14 49 6b 3e 1c 5e e3 bc
       -0.2574708 -0.28572407 0.22977096 -0.027754836
000100 75 3e 28 3d d1 a5 3b be c7 2f 79 3d bd 9c af 3e
       0.04107519 -0.18324973 0.06083658 0.3429927
000110 57 57 a3 3d 8c 99 83 3e 59 cd 9f 3d 6a 2d 59 be
       0.07975643 0.25703084 0.07802839 -0.2120873
000120 0b 0c 62 3e 06 a7 81 3e c4 17 39 3d 37 42 73 3d
       0.22074907 0.2532274 0.04518868 0.05938932
000130 21 0e c8 3d 02 f9 87 3b b3 cf a4 3d 2a 42 ac 3e
       0.0976832 0.004149557 0.08047428 0.3364423
000140 b2 6d d2 bd 63 65 74 3c e4 90 95 be 03 c0 41 be
       -0.10274829 0.014916751 -0.29212105 -0.18920903
000150 04 4d 82 3c 0b 14 0f 3d 9e 5c 6e 3e eb 70 23 3e
       0.015905865 0.034931224 0.23277518 0.15961044
000160 81 c2 16 3e 08 73 2b be f3 07 b3 3d df 0d 8e 3e
       0.14722635 -0.167431 0.087417506 0.27744958
000170 cf 24 3c 3e 6b a5 15 bd 8a 77 1b be ce a1 d9 3d
       0.18373416 -0.036534708 -0.1518232 0.10626565
000180 2a 28 9d 3d 51 44 9a 3c 1a 36 ab 3d 00 da 51 be
       0.07673676 0.018831404 0.083599284 -0.20493317
000190 8f 2c 6a be c0 71 87 be 22 b6 a9 bd 00 8e 66 be
       -0.2286856 -0.26453972 -0.08286692 -0.22515106
0001a0 1d a2 7e bd 1b c4 1b be 10 d5 55 be 44 7a ad 3d
       -0.062166322 -0.15211527 -0.20882058 0.08470586
0001b0 be 92 90 be b9 bf 22 3e 04 f6 dc 3d 31 e3 1c 3e
       -0.28236955 0.15893449 0.10789111 0.15321042
0001c0 62 22 b8 bd d7 ee bf bb be 8f 01 be ed ee 2b 3e
       -0.08990933 -0.0058573293 -0.1265249 0.16790362
0001d0 47 8b a7 be 65 cc 53 be f3 46 26 be 66 0b 5b 3e
       -0.32723448 -0.20683439 -0.16238002 0.21391067
0001e0 73 64 0c be 0f ce 4a be dd 8f e0 3d 18 01 65 3e
       -0.13710193 -0.19805168 0.1096494 0.22363698
0001f0 df 4b 8d 3e 7d be 5a 3c 02 41 d6 bd 30 5a 0b be
       0.27596948 0.01335108 -0.10461618 -0.13608623
000200 bd 55 97 be 8f 5c c1 bd 3e bf 5a be 42 82 4f 3d
       -0.295576 -0.09441482 -0.21362016 0.050661333
000210 ee 69 13 be b8 67 fb bc 28 0d a0 3d 7f 85 d7 bc
       -0.14395878 -0.030689105 0.07815009 -0.026308773
000220 77 f4 06 be 7c 68 67 be 90 61 8c be 12 80 2e 3e
       -0.13179193 -0.22598451 -0.27418184 0.17041042
000230 fb ca c5 bd 07 db 31 be fd 20 59 be d5 f4 09 be
       -0.09657856 -0.17368709 -0.2120399 -0.13472302
000240 b6 b8 24 3e 0c b3 9f 3e a5 fb 8d 3e f3 de 9e bb
       0.16086087 0.3119129 0.27731052 -0.004848355
000250 1a b9 77 be e4 ca ae bd 85 7b 68 3e 3f 47 c8 3d
       -0.24191704 -0.08534792 0.22703369 0.09779214
000260 97 33 c2 bb a5 fa f5 3d 12 9f b4 3d 80 3f 87 3d
       -0.00592656 0.12010697 0.08819403 0.066039085
000270 d2 fd 03 3e 1c 6b 50 3d 82 7f 99 3e f6 0b 35 be
       0.12889794 0.050883397 0.29980093 -0.17680344
000280 5a 6f 63 be 67 e8 88 be 89 4f 09 3e 71 00 70 be
       -0.22210446 -0.2673981 0.13409247 -0.23437668
000290 f6 00 91 bd 7d fa 3f be 48 95 74 3e 84 1f b2 3e
       -0.070802614 -0.18747897 0.23885071 0.3478967
0002a0 d5 0f 02 3e 39 d0 98 3e 10 b7 8c 3e f8 74 7b be
       0.12701352 0.2984636 0.27483416 -0.24556339
0002b0 a8 1a 9c 3d 98 c3 93 3e 8b b0 89 3e bc 43 2a 3b
       0.07622272 0.28860164 0.26892504 0.0025980314
0002c0 13 e8 e2 3d fc 31 ad bd d1 8a 39 3e 87 2c 7b 3e
       0.11079421 -0.084567994 0.1811936 0.24528705
0002d0 ca ef 69 bd d8 fb 4e be a4 2a dc bd 30 a2 a7 be
       -0.057113446 -0.20213258 -0.107503206 -0.32740927
0002e0 b3 bf 74 be 73 25 0b bc 23 f4 8f 3e 06 25 e0 3d
       -0.23901252 -0.008492815 0.2811595 0.10944562
0002f0 2e 3c 39 3e ed 04 ac be 1f 3b 40 3e ad 89 55 3e
       0.18089363 -0.33597508 0.18772553 0.208533
000300 3e b4 16 3e 09 78 c6 3c 64 72 43 be 0b f4 09 3e
       0.14717194 0.02422716 -0.19086605 0.13472001
000310 3a 93 7c 3e 67 30 f4 3d 60 0c 0e 3e 40 ac b7 bd
       0.24665537 0.119232945 0.13871908 -0.08968401

lstm.weight_hh_l0 f4 [200, 50]
000000 4a b8 c4 bd 66 d9 ec bd 67 64 a6 3c 47 6d 8e bc
       -0.09605463 -0.11564903 0.020311547 -0.017386092
000010 33 67 bf 3d 92 da 08 bd 2f dc 36 bd 10 b7 97 3d
       0.093458556 -0.03341157 -0.044643577 0.07407963
000020 6d 29 67 3d 94 20 e8 bd d6 bb ff 3d 14 0b 28 3e
       0.05643599 -0.11334339 0.12486999 0.16410476
000030 58 e8 84 3d 5d 6a f3 3c 00 cd 01 be 8f d9 9c bc
       0.064896286 0.029713804 -0.12675858 -0.019146709
000040 79 2c d5 bd 9b ef 23 be a3 73 43 3d 73 30 cb 3d
       -0.10408873 -0.16009371 0.0477177 0.0992135
000050 5e 77 d2 bd f6 b0 b9 3b 52 6a 8b 3d 5e bc 77 bd
       -0.10276674 0.0056668473 0.06807388 -0.060482375
000060 78 30 4a 3a 99 ad 16 be 79 ed a6 3d 23 40 9f bd
       0.0007712911 -0.1471466 0.08150763 -0.07775905
000070 97 15 64 be 13 54 eb bc c2 ad 59 3c 35 1e a5 3d
       -0.22273861 -0.028726613 0.013286056 0.08062402
000080 2b e5 0f 3c dd 87 85 3d bf 57 d7 3d 66 c3 1f 3e
       0.008782665 0.065200545 0.10514783 0.15601882
000090 95 fe a9 3d fc bd 72 3d 1e ca 33 be 76 41 b3 3d
       0.08300511 0.059263214 -0.1755757 0.0875272
0000a0 7a c2 55 bd 8e 1e cf bd 65 80 d7 3c c5 74 13 3c
       -0.05218742 -0.1011325 0.02630634 0.009000008
0000b0 74 e4 39 3e 1f 1c 13 bd 42 53 60 bd 09 68 ea bd
       0.18153554 -0.03591549 -0.0547669 -0.114456244
0000c0 6e 2e 93 3d 2d 4f 45 be 17 e8 fd bd 8d 1f 85 bd
       0.0718659 -0.19268484 -0.12397783 -0.065001585
0000d0 48 1f 6b bd 67 79 87 bd c6 d4 0c be dd d7 f5 b9
       -0.05740288 -0.066149525 -0.13753042 -0.00046890872
0000e0 fe df d7 3c d2 81 a5 3b cb cf f1 bc 4a 5b f8 bc
       0.026351925 0.005050876 -0.029518029 -0.030316968
0000f0 3c 89 ff 3d fd 59 c5 bc c2 8a ae 3c e5 ea de 3c
       0.12477347 -0.024090761 0.0213064 0.027211616
000100 08 8a 36 3d 90 28 47 3e 8a 05 2a be 34 23 41 3d
       0.04456523 0.19449067 -0.16603675 0.047152713
000110 64 f8 1b bd 54 26 c0 3c dd 3a 2a be fa e5 3d be
       -0.03807868 0.023455776 -0.16624017 -0.1854476
000120 29 5d a2 3d 4f 28 21 3e c3 14 7a 3d a3 33 fe bd
       0.07927925 0.15738033 0.061054956 -0.12412193
000130 d1 c7 9a bc ff 58 f4 bd c9 f1 2b be f7 97 66 3d
       -0.018894108 -0.11931037 -0.16791452 0.05629727
000140 e5 02 f0 bc 16 98 5b bd 6b f9 82 bd f3 2a 5e bd
       -0.029298255 -0.053611837 -0.06395229 -0.05424018
000150 d5 ae 1e 3e 04 b6 92 bc e7 13 a4 bd 9e dd 1e be
       0.1549638 -0.017909057 -0.080116086 -0.15514228
000160 f4 30 f7 bd 18 35 a6 3c 20 f4 f3 bd a7 94 51 3d
       -0.12069884 0.020288989 -0.119117975 0.051167157
000170 09 c2 fc bc ec 0e da bb 36 ef 6c 3e fa c6 14 3e
       -0.030854242 -0.006654611 0.23138127 0.14529029
000180 52 cd c7 3d be ee 05 bc c2 3e 22 be 52 36 85 3c
       0.097559586 -0.008174596 -0.15844253 0.016261254
000190 92 78 c4 3c 27 54 2d 3c b5 75 39 bd 24 c9 4d 3c
       0.023983274 0.0105791455 -0.04527827 0.012560163
0001a0 5c 87 b7 3d 0d 65 48 3e af 85 e9 3d 35 27 18 be
       0.089613646 0.19569798 0.11402451 -0.14858706
0001b0 94 f9 91 3d 53 b5 cc bd 4c 32 09 be 9f fa 13 be
       0.071276814 -0.09995522 -0.13398093 -0.14451073
0001c0 15 0e eb 3d 02 24 8b bd 88 66 b6 bd b3 8b bc 3c
       0.11477295 -0.06793977 -0.08906275 0.023015833
0001d0 f1 29 52 3e c4 da 62 3e 06 9d b7 3d 79 a3 a8 bd
       0.20523812 0.22153765 0.08965497 -0.08234305
0001e0 a8 5c 3a 3e 39 2d 6c bd fc b0 01 3d fd 83 db bb
       0.18199408 -0.057660315 0.031662926 -0.006699084
0001f0 d8 ba c3 bc 4e 83 d3 bd 9e 9d d2 3d 25 ca 47 3d
       -0.023892805 -0.10327779 0.10283969 0.048776764
000200 17 cd f1 3c 6f 02 73 3c 77 27 c3 3d 89 1c 12 3e
       0.02951674 0.014832123 0.09529012 0.14268698
000210 1b e4 1f 3e c6 70 e8 3d b8 db b4 3d b2 37 08 be
       0.15614359 0.11349635 0.088309705 -0.13302496
000220 41 a3 19 3e 23 4c 14 3e 41 ab 3e 3d 56 2e b3 bd
       0.15003683 0.14482169 0.04655004 -0.08749072
000230 a1 63 f6 bc d4 50 ae 3d 5c 82 3d 3e 31 94 9c bd
       -0.030076804 0.085115105 0.1850676 -0.07645453
000240 c2 20 3b bd 33 ae 5b be 5b 4f 9e bd 36 ea f2 3d
       -0.045685537 -0.2145317 -0.077299796 0.118610784
000250 6c 7b 35 3e b8 ed c7 3d 42 7d 60 3b c1 42 bf 3c
       0.17722863 0.09762138 0.0034254347 0.02334726
000260 82 26 3f 3d 99 49 d8 3c 3d e9 14 be e0 46 11 be
       0.046667583 0.026402282 -0.14542098 -0.14187193
000270 cf 21 b7 bd 64 d1 f9 bd ea dc 26 bd ce c5 b2 bd
       -0.08941995 -0.12198141 -0.040738024 -0.087291345
000280 36 05 1a 3e de c3 85 3d c3 dd f8 bd 89 71 f6 3d
       0.1504105 0.06531499 -0.12151673 0.12033374
000290 2f b7 0e be f8 ad 48 3e ae 3a 01 3c 1b 00 2b bd
       -0.13937066 0.19597614 0.0078875255 -0.041748147
0002a0 1d 98 a6 bb f9 71 d1 bd 69 95 ad 3d c2 47 49 bd
       -0.0050840513 -0.10226817 0.08475763 -0.0491407
0002b0 1c 29 09 3d 2f 2b 24 3e ce af 46 3c 87 7a f5 bc
       0.03348647 0.16032098 0.012126876 -0.029965652
0002c0 7c 21 dc 3c 34 63 7d bd 64 a8 25 3b 90 cf c4 bc
       0.026871435 -0.061862186 0.002527737 -0.024024755
0002d0 8e 6b be bd db 50 9d 3d e8 aa 9d bd 90 8c dc bd
       -0.09297858 0.076814376 -0.076986134 -0.10768998
0002e0 e6 89 1e 3e 33 63 13 3e 93 87 0f 3d 84 08 9c bd
       0.15482292 0.1439331 0.035041403 -0.07618812
0002f0 c2 c7 26 bd 59 3b 32 bb 9c 7f 2b bc 68 5c d7 3d
       -0.040717848 -0.0027196018 -0.010467436 0.10515672
000300 29 ac 9d bc 5e 91 e1 bd 93 99 a7 3d 4e c0 bd 3c
       -0.019247131 -0.11014055 0.08183589 0.023162987
000310 3c af a5 3d 8d 28 d5 3d 14 52 8c 3d 6a b0 f8 bd
       0.08090064 0.10408125 0.06851593 -0.12143023
000320 f7 4b 5e 3d 38 48 ba bd db b4 09 bc 17 4e ca 3c
       0.054271664 -0.09095806 -0.008404936 0.02469544
000330 13 25 a9 bd 57 64 c9 3d f1 30 ee 3d 72 1f 0b 3e
       -0.082590245 0.098335914 0.116304286 0.13586214
000340 23 cf 39 be 1b 5a 8c bd c8 7c 34 3e 15 a9 70 3d
       -0.18145423 -0.06853124 0.17625725 0.058755
000350 77 d7 8a 3d aa 9a 2f be 0c 5c e0 3d e5 fd e4 3d
       0.06779378 -0.17148843 0.109550565 0.11181239
000360 d5 ab 23 be 09 bf 5c 3c 95 83 ea 3c 0e ac ac bd
       -0.15983517 0.013473281 0.028627196 -0.08431254
000370 45 76 37 3d cf f3 81 be 71 17 8c 3c 95 4d 06 bd
       0.044790525 -0.25381324 0.017101021 -0.03278883
000380 6a 11 27 3c 7e 01 16 3d aa 66 03 3d c5 2f bc 3d
       0.010197023 0.036622517 0.03208033 0.09188799
000390 30 dd c4 bd ad fb 3f 3b 7c 82 27 bc f6 58 4e be
       -0.09612501 0.0029294298 -0.010223981 -0.20151123
0003a0 9f 75 32 3d 51 cd ca bc bb 90 c9 bc 00 f8 20 3e
       0.043569203 -0.024756106 -0.024605146 0.15719604
0003b0 00 be c8 3d 6d 6c 69 3d 59 4a 89 bd 44 c1 c3 3d
       0.098018646 0.05698817 -0.06703634 0.09558347
0003c0 4d a6 2a 3c 89 e6 15 3c 05 26 04 3d 78 e2 fd 3d
       0.010415626 0.009149202 0.03226282 0.12396711
0003d0 1c 65 5a 3e cc b5 c3 bd 1e 44 98 3d 34 85 06 be
       0.21327633 -0.095561594 0.07434867 -0.1313675
0003e0 22 9b 3a 3c a5 59 2a 3d b5 00 4e bc 1b a7 8b 3d
       0.011389526 0.041589398 -0.012573411 0.06818982
0003f0 75 81 24 3e 3b f6 aa 3c 53 17 02 3d ee 26 58 bd
       0.16065009 0.020869365 0.031760525 -0.0527715

lstm.bias_ih_l0 f4 [200]
000000 84 07 81 bd b2 3d 7b bd f5 71 59 be 7b a7 ad 3d
       -0.063002616 -0.061338134 -0.21234877 0.0847921
000010 c8 cb 8e 3c 9d a6 9d bd 2a 7d 0c 3e 5e 23 3c be
       0.017431155 -0.076977946 0.13719621 -0.18372867
000020 4f d1 5e 3d a7 3e 67 bc df fe 13 bd ec f8 c4 3c
       0.05439883 -0.014114059 -0.036131736 0.024044476
000030 76 24 0f 3e b4 0d 09 be 2d 01 fa bd 95 e1 c6 bd
       0.13978752 -0.13384134 -0.122072555 -0.09710995
000040 75 e4 38 3e 31 0f fa 3d 1a b1 5f 3b fe 8c 7c bd
       0.180559 0.12209929 0.003413266 -0.061657898
000050 00 00 ef bd 5b 6c b1 3c 28 fe 11 3e f7 01 bb 3d
       -0.11669922 0.021658113 0.14257109 0.09131234
000060 ec ea 2b 3d 6b 68 9e bd 9a 63 40 be 91 6b e7 bd
       0.041972086 -0.0773476 -0.18787995 -0.112998135
000070 5b 2f 0d 3e 0a ef ec 3d 2f 44 d7 bd 98 ca 56 be
       0.13787596 0.115690306 -0.10511052 -0.20975721
000080 99 bf 7c bd e0 f1 02 be 3d e3 2a be 03 7e b2 bd
       -0.06170616 -0.1278758 -0.16688247 -0.08715441
000090 f9 8a f7 3d 22 ed 31 3e 66 11 ea 3d 1b ea 22 be
       0.12087054 0.17375615 0.114291 -0.15909617
0000a0 06 87 ba 3c 1f cd 58 bd 87 52 a7 bd 74 bb d0 bd
       0.022769462 -0.052929994 -0.08170038 -0.10192004
0000b0 33 5c 31 be 6a 0f 02 bd 0f 65 e2 bd 86 35 a3 3d
       -0.17320327 -0.03175298 -0.11054432 0.07969193
0000c0 d3 7b f2 3d 48 cb 0c 3d 85 a5 26 3e 78 6a 0f 3e
       0.11840024 0.03437355 0.16274078 0.14005458
0000d0 fe 4f 00 be 10 46 7a 3d 38 b0 26 3e 0c 18 21 be
       -0.12530515 0.061101973 0.1627816 -0.1573183
0000e0 2a d4 14 bd 93 9e 1f be 48 fa 7e 3d ed 76 40 3d
       -0.036335148 -0.15587835 0.062250406 0.046988416
0000f0 b9 15 94 bd b3 2e 4e 3d b1 bc ee 3c 15 f1 e5 bd
       -0.07230706 0.050337505 0.02914271 -0.112276234
000100 15 90 df bd 67 65 90 bc 99 5b f5 3d c2 43 e9 bc
       -0.10916153 -0.017626477 0.119803615 -0.028474692
000110 bf a0 72 be 59 5a 22 3d eb 06 10 be 3f 7d 4d bc
       -0.23694132 0.039636943 -0.14065139 -0.012542068
000120 8e 9d b1 3d e8 eb f2 3c 38 40 0c be 1a 8a 86 3d
       0.08672629 0.029653504 -0.13696373 0.065693095
000130 de 42 34 3d 13 72 73 bc f5 5a 38 bd 4f 89 cb bc
       0.044009082 -0.01485874 -0.04500862 -0.024845747
000140 1c b4 d9 bd b8 da 61 3c 8a b4 01 be e7 e2 2b be
       -0.10630056 0.013785057 -0.12666526 -0.16785775
000150 4e 7b 0f bc 2b 63 ec bc a6 96 dc bd 74 cd 8e 3d
       -0.0087574255 -0.02885588 -0.107709214 0.06972781
000160 69 d2 17 3e 4d 80 72 3c 00 65 ed bd e0 df 50 3c
       0.14826359 0.014801097 -0.1159153 0.012748688
000170 f0 f6 28 be db e6 17 be f0 82 02 be e7 2b e1 bd
       -0.16500449 -0.14834158 -0.12745261 -0.10994702
000180 44 14 f6 3d 0e 94 ef 39 bf 24 89 3d d0 f8 62 be
       0.12015584 0.00045695942 0.06696462 -0.22165227
000190 d6 27 d9 bd 2c cd 83 3d 8e de 3d 3d eb 46 46 3d
       -0.10603301 0.06435618 0.046354823 0.048407476
0001a0 6c 49 1c be d5 cf 01 3c 2b 5d b1 bc 10 54 2a 3d
       -0.15262383 0.007923086 -0.021650871 0.041584074
0001b0 4a 3a 9f 3d a2 13 02 3d 04 4d 28 be 78 0a b0 3b
       0.0777479 0.031757005 -0.16435629 0.0053723417
0001c0 c2 53 22 be b1 ef 1c 3d 32 46 36 bd 84 c0 15 be
       -0.15852264 0.038314525 -0.044500537 -0.1462422
0001d0 93 df ee 3c b0 5f b5 bd 57 0a 11 be b4 35 c2 3d
       0.029159343 -0.088561416 -0.141641 0.09482899
0001e0 cf 9f a1 3d 8b be 32 3d 95 9d 02 3e 7d a7 c8 3c
       0.07891809 0.043638747 0.12755425 0.024493927
0001f0 41 4e bc 3c 77 f9 a6 3a ba 9b 23 bd 8b 28 61 3d
       0.022986533 0.0012739141 -0.039943434 0.054970305
000200 98 ee 86 3c c1 bb 57 bd 4f af 8e 3d 3d 6d 3b bb
       0.016471192 -0.05266929 0.06967031 -0.0028599047
000210 cb 9b 95 3d 97 18 87 3c 02 42 9d 3d be c4 28 be
       0.07305106 0.016491218 0.076786056 -0.16481301
000220 8b 6f 86 3b 5e 69 af bc a6 df 19 bc 90 07 bd bd
       0.0041026524 -0.021412548 -0.009391701 -0.09229958
000230 55 f4 9a bc 45 07 0e be 41 d4 f1 bd 11 55 f5 bc
       -0.018915335 -0.1386996 -0.11808062 -0.02994779
000240 ae c5 5b bc e5 67 a9 3d 49 65 a3 bb fd cd 20 bc
       -0.01341383 0.082717694 -0.0049864394 -0.009814736
000250 0b 7e 8a bd 5b 2f 80 bd c9 18 28 bd 50 bf 52 bd
       -0.06762322 -0.06259032 -0.041039262 -0.05145198
000260 47 68 28 be 51 c9 de 3c 4b fe ab 3d 7c a6 d4 bd
       -0.16446029 0.027195605 0.08398112 -0.10383317
000270 f2 93 b7 bd 80 46 e8 3a e9 4d ea 3a 3b 32 6e 3c
       -0.08963765 0.0017721206 0.0017876002 0.014538343
000280 64 b1 42 be 8c de 95 bc ab c5 cf 3d af 96 5b be
       -0.19012982 -0.018294595 0.10145124 -0.214442
000290 1f 54 0f be c1 5e 01 be 86 52 1e 3d 27 31 7d 3d
       -0.13996933 -0.12633802 0.03865292 0.061814453
0002a0 fc 7c 29 3b f9 6d 08 3e 1f 92 6e bd 30 a0 94 3c
       0.002586185 0.13323201 -0.05824482 0.01814279
0002b0 03 c0 cc 3d 8b 03 1a 3e b6 db a5 3d 9e 2d c1 bc
       0.09997561 0.15040414 0.08098547 -0.023581322
0002c0 57 0e 98 bd 6b 7d 6e bc be 97 5b 3e 89 71 a9 bb
       -0.0742461 -0.014556269 0.21444604 -0.005171005
0002d0 10 f4 d6 bd 28 dc 4e be f9 2c 30 bd 9d 46 92 bd
       -0.1049577 -0.2020117 -0.04301164 -0.07142375
0002e0 6f 7f 27 be e5 5a 98 bd 54 00 fd bd 98 77 73 bd
       -0.16357206 -0.07439212 -0.12353578 -0.059440225
0002f0 b4 5f 2d 3d aa e2 59 3d 27 70 36 3d 66 32 1e 3c
       0.042327598 0.05319468 0.04454055 0.009655571
000300 39 7a b1 3d 04 37 9d bc d8 34 b3 bd 64 37 79 3d
       0.0866589 -0.019191273 -0.087503135 0.06084384
000310 d0 f1 a9 3d 09 10 21 be b9 d5 22 3e 52 8a 02 be
       0.08298075 -0.15728773 0.15901841 -0.12748078

lstm.bias_hh_l0 f4 [200]
000000 6c e9 88 3d 59 75 d2 3d 0b 16 fd bd 31 9c 80 bd
       0.06685147 0.102762885 -0.1235772 -0.06279791
000010 4f f7 a3 3d c1 b9 60 be f4 92 dc 3b 1f e5 0d 3d
       0.08006155 -0.2194586 0.0067313854 0.034642335
000020 e1 df b5 bd 49 5c 14 be 99 ce 10 be 2e 79 4f 3c
       -0.08880592 -0.14488329 -0.14141311 0.012663169
000030 82 4a 70 bd 2e ed f2 bd 83 0b 44 be 87 ba ae 3d
       -0.058664806 -0.11861645 -0.19145016 0.08531671
000040 1f 08 9b 3d f5 90 e0 3c 68 55 1f be 85 43 00 bd
       0.07569908 0.02741287 -0.15559924 -0.03131439
000050 62 3f 88 3d 44 39 10 3e f9 6d bf bd 54 ae 68 3b
       0.06652714 0.14084345 -0.093471475 0.0035504298
000060 26 32 ad 3d f0 b1 35 3d 05 e7 1f be c7 94 c6 bd
       0.08456831 0.044359148 -0.1561547 -0.09696346
000070 c5 66 80 3d 97 c8 f8 bd 03 66 da 3d 11 17 d6 bd
       0.06269602 -0.121476345 0.106639884 -0.10453618
000080 a0 35 65 be d6 46 51 be 79 e6 39 be 80 c5 33 3d
       -0.22383738 -0.20437178 -0.18154325 0.043889523
000090 87 e1 3f 3d fb 1b b4 3d 28 1d 60 3d 97 45 91 bd
       0.04684594 0.08794399 0.054715306 -0.07093351
0000a0 29 71 b1 bc 85 94 98 3b 91 00 ca bd 96 72 30 be
       -0.021660404 0.004656377 -0.09863389 -0.17231211
0000b0 7d da f7 3c 25 dc c7 bd 44 b7 51 3c da b6 c7 3d
       0.03025555 -0.09758786 0.012800042 0.09751673
0000c0 9d 6c b8 3d 49 3f 18 bb 07 21 72 3d 06 70 e1 3d
       0.09005091 -0.002323108 0.05911353 0.11007695
0000d0 af fc ac bc bb 4a 1f 3d 2a 59 2f bd 55 16 d8 bd
       -0.021116583 0.038889628 -0.042809643 -0.105511345
0000e0 00 80 13 3e 8a b7 62 bd 3a fa ac 3c f5 7d 13 be
       0.14404297 -0.055350818 0.021115411 -0.14403518
0000f0 ef ec 2a be be ed 74 3b 78 54 eb 3c 76 ee 03 be
       -0.16691945 0.003737315 0.028726801 -0.12883934
000100 da 2a a5 bd 80 1f 38 3d 4a 63 5f bd 95 66 d9 3c
       -0.08064814 0.044951916 -0.05453805 0.026538173
000110 46 85 e7 bd f2 38 05 bd f6 06 c9 3c d0 1b c7 bd
       -0.11304717 -0.03252501 0.024539452 -0.09722102
000120 62 a6 f6 3d 9d c8 90 3d ea 9e 30 be ed 37 9c bd
       0.12043454 0.07069514 -0.17248121 -0.076278545
000130 88 94 a3 bd 9d 8d d3 bc 61 3f 5b bd a7 73 c1 3d
       -0.079873145 -0.025824362 -0.05352724 0.09445887
000140 aa ae c9 bd 4f 34 0e be b3 ff 7c bd e8 d6 21 bd
       -0.09847768 -0.13887142 -0.06176729 -0.03951159
000150 89 51 d9 3c 4a 8a 26 be 1e cc f6 3d eb 6d d5 3d
       0.026528137 -0.1626369 0.12050651 0.10421356
000160 fd 4b f4 3d eb 3b b9 bc b4 95 12 bd 59 26 88 3d
       0.11928556 -0.022611579 -0.0357873 0.06647939
000170 62 ce cc bd 4a 78 0e bc c5 0a 33 be 67 de 05 3e
       -0.10000302 -0.008695671 -0.17484577 0.13073121
000180 e0 5c e1 3d ba d5 07 be 86 a7 ac bd 1e 78 5d bd
       0.110040426 -0.13265124 -0.0843039 -0.05406963
000190 54 01 b8 3c 80 6c 25 be 8a 8b b8 bd ab 35 bb bd
       0.02246157 -0.1615467 -0.0901099 -0.09141096
0001a0 28 ae 27 be ec 94 b3 3d 3f 52 bf bd aa 73 80 3c
       -0.16375029 0.08768639 -0.09341859 0.015680153
0001b0 2d ce 37 bd a6 bd 1a bd f9 63 e3 3c fd 0a 06 be
       -0.04487436 -0.03777852 0.027757632 -0.13090129
0001c0 87 56 a0 3d 0c f3 ac bc 61 fc 0c 3c ee bc 71 3c
       0.07829004 -0.021111988 0.008605094 0.014754517
0001d0 2d 45 9b bd 31 eb 72 bd 31 97 b9 3d fb 06 bd 3a
       -0.075815536 -0.059306327 0.090620406 0.0014421636
0001e0 86 b1 28 be 43 ce 07 3e 65 10 9d 3d 95 16 e9 3d
       -0.1647397 0.13262276 0.07669143 0.1138126
0001f0 91 f0 2f bd 48 64 c8 3d e1 30 39 bc 6e ef b8 3c
       -0.04295403 0.09784752 -0.011303158 0.022575106
000200 9a 10 5d bc e3 41 d9 bd b8 ab 5c 3d 75 2f e9 3d
       -0.013492728 -0.1060827 0.0538747 0.11386005
000210 dd 5b 6e bb 59 b8 0d 3e 27 ba 63 bc a3 1a 99 3d
       -0.0036370673 0.13839854 -0.013899363 0.07475784
000220 42 5f 33 be 07 61 02 be 94 ca 98 bd 7a ea 2e bc
       -0.17516807 -0.12732325 -0.07460514 -0.010676021
000230 8c 03 cb bd b2 8d b2 bd cc fb 0b 3d 0b 5c a5 bb
       -0.09912786 -0.087184325 0.03417568 -0.005046373
000240 e6 6d 5e bd 8f d6 7b 3c 6c b8 1b 3c 30 40 0f bd
       -0.054304026 0.015370979 0.009504419 -0.034973323
000250 74 31 04 be 0a 31 09 3b 0a 62 1b 3e 69 f2 33 3e
       -0.1290949 0.002093377 0.15174118 0.17572941
000260 95 17 44 be 41 4d 9f 3d 18 5b d2 3d 8e ab dd bd
       -0.19149621 0.07778407 0.10271281 -0.10823737
000270 2d aa a7 bd 2c b4 36 3c a6 f4 f1 3d 95 09 5e be
       -0.08186755 0.011151355 0.11814241 -0.21683343
000280 e6 e2 e2 bd c2 65 e7 bd 64 ac f6 bc 07 a8 02 3d
       -0.11078434 -0.11298706 -0.0301115 0.031898525
000290 2d 07 bf bd 26 a9 50 3c d5 33 0f 3e 8a d2 9a 3d
       -0.093275405 0.012735641 0.13984616 0.075596884
0002a0 8e f1 10 3c 67 ab dc 3d 16 b8 05 3d 2e 5b d6 bc
       0.008846654 0.1077488 0.03264626 -0.026166525
0002b0 2e 22 93 3c 57 d2 05 bd de e0 00 be de 45 d9 bd
       0.017960634 -0.0326713 -0.1258578 -0.10609029
0002c0 5e 19 8d bc 6d 9f 9a bd 3b 90 67 3d fa 31 0b 3d
       -0.01722401 -0.07549939 0.056534033 0.03398321
0002d0 ac 36 0b 3d bc e3 ef bd b9 80 b7 3b b7 69 66 bd
       0.033987686 -0.11713359 0.0056000617 -0.05625316
0002e0 aa 5d f4 3c ed 39 d0 bd 79 dd 35 bd 48 3a 1c 3d
       0.029829819 -0.101672985 -0.044400666 0.03814152
0002f0 44 db 08 3e 28 e0 ea bd 13 bb 33 bd a8 1f ce 3a
       0.13364893 -0.11468536 -0.04387958 0.0015725987
000300 3a 90 dd 3d 32 3c 25 be 34 78 4b bd 51 0d 85 b9
       0.10818525 -0.16136244 -0.04967518 -0.00025377658
000310 4a df d5 3d a5 8a 1d be 13 d2 d2 3d d7 09 49 be
       0.1044298 -0.1538492 0.10293975 -0.1963266

fc.weight f4 [1, 50]
000000 6e 1e 52 be c2 4a 27 be 78 b0 86 bd 31 23 5e be
       -0.2051942 -0.16337112 -0.065766275 -0.21693112
000010 1a 8d 42 be 6a 32 0b 3c 79 b2 e2 bd 02 2a 79 3c
       -0.18999138 0.008495906 -0.11069197 0.015207769
000020 11 ee da bd f9 7d c1 3d 5b 04 c2 bc d1 f8 94 b9
       -0.10689939 0.094478555 -0.023683717 -0.00028414142
000030 7c 9b d5 bd 7c ea 74 3d ec c4 68 bd 40 5a 2f bc
       -0.10430047 0.059793934 -0.056828424 -0.01070267
000040 a2 9b 19 be 78 46 0f be f1 65 2a bd 23 fb 32 3e
       -0.15000775 -0.13991725 -0.041601125 0.17478614
000050 90 a3 ea bd b5 0c 61 bd 8e 1a 35 3e 6f 8d c1 3d
       -0.11456978 -0.05494376 0.17685911 0.094508044
000060 45 d0 9d 3d 98 af 83 3d 4c 12 f6 bd 5b 9a 4a bd
       0.0770574 0.06429976 -0.120152086 -0.04946361
000070 d3 2c 03 be 7f d5 26 be fb 59 73 bd 64 bc df 3c
       -0.12810068 -0.1629238 -0.059411984 0.027311511
000080 dc f2 ca bc cc 79 87 3d a6 07 2a 3c 4f b3 9e bd
       -0.024774007 0.06615028 0.0103778 -0.07749044
000090 09 be 08 be 78 74 ff bd 0a 48 57 be e3 35 a5 3d
       -0.13353743 -0.124733865 -0.21023574 0.08066919
0000a0 d1 95 0f be 2e a0 25 be f6 6d eb bd 40 56 af bd
       -0.14021994 -0.16174385 -0.11495583 -0.08561373
0000b0 c1 34 57 3c c7 00 09 3e bd cc e4 3d f0 7a 2d bc
       0.013135136 0.13379203 0.11171863 -0.010588393
0000c0 1c 2f 3c be 84 6c 98 bd
       -0.18377346 -0.07442573
